…
2023-05-26 14:27:39,649   INFO  ==> Checkpoint trained from version: pcdet+0.3.0+7fac92d
2023-05-26 14:27:43,057   INFO  Not updated weight step: torch.Size([1])
2023-05-26 14:27:43,060   INFO  ==> Done (loaded 735/736)
2023-05-26 14:27:43,773   INFO  DistributedDataParallel(
  (module): PVRCNN_SSL_db(
    (pv_rcnn): PVRCNN(
      (vfe): MeanVFE()
      (backbone_3d): VoxelBackBone8x(
        (conv_input): SparseSequential(
          (0): SubMConv3d(4, 16, kernel_size=[3, 3, 3], stride=[1, 1, 1], padding=[1, 1, 1], dilation=[1, 1, 1], output_padding=[0, 0, 0], bias=False, algo=ConvAlgo.MaskImplicitGemm)
          (1): BatchNorm1d(16, eps=0.001, momentum=0.01, affine=True, track_running_stats=True)
          (2): ReLU()
        )
        (conv1): SparseSequential(
          (0): SparseSequential(
            (0): SubMConv3d(16, 16, kernel_size=[3, 3, 3], stride=[1, 1, 1], padding=[0, 0, 0], dilation=[1, 1, 1], output_padding=[0, 0, 0], bias=False, algo=ConvAlgo.MaskImplicitGemm)
            (1): BatchNorm1d(16, eps=0.001, momentum=0.01, affine=True, track_running_stats=True)
            (2): ReLU()
          )
        )
        (conv2): SparseSequential(
          (0): SparseSequential(
            (0): SparseConv3d(16, 32, kernel_size=[3, 3, 3], stride=[2, 2, 2], padding=[1, 1, 1], dilation=[1, 1, 1], output_padding=[0, 0, 0], bias=False, algo=ConvAlgo.MaskImplicitGemm)
            (1): BatchNorm1d(32, eps=0.001, momentum=0.01, affine=True, track_running_stats=True)
            (2): ReLU()
          )
          (1): SparseSequential(
            (0): SubMConv3d(32, 32, kernel_size=[3, 3, 3], stride=[1, 1, 1], padding=[0, 0, 0], dilation=[1, 1, 1], output_padding=[0, 0, 0], bias=False, algo=ConvAlgo.MaskImplicitGemm)
            (1): BatchNorm1d(32, eps=0.001, momentum=0.01, affine=True, track_running_stats=True)
            (2): ReLU()
          )
          (2): SparseSequential(
            (0): SubMConv3d(32, 32, kernel_size=[3, 3, 3], stride=[1, 1, 1], padding=[0, 0, 0], dilation=[1, 1, 1], output_padding=[0, 0, 0], bias=False, algo=ConvAlgo.MaskImplicitGemm)
            (1): BatchNorm1d(32, eps=0.001, momentum=0.01, affine=True, track_running_stats=True)
            (2): ReLU()
          )
        )
        (conv3): SparseSequential(
          (0): SparseSequential(
            (0): SparseConv3d(32, 64, kernel_size=[3, 3, 3], stride=[2, 2, 2], padding=[1, 1, 1], dilation=[1, 1, 1], output_padding=[0, 0, 0], bias=False, algo=ConvAlgo.MaskImplicitGemm)
            (1): BatchNorm1d(64, eps=0.001, momentum=0.01, affine=True, track_running_stats=True)
            (2): ReLU()
          )
          (1): SparseSequential(
            (0): SubMConv3d(64, 64, kernel_size=[3, 3, 3], stride=[1, 1, 1], padding=[0, 0, 0], dilation=[1, 1, 1], output_padding=[0, 0, 0], bias=False, algo=ConvAlgo.MaskImplicitGemm)
            (1): BatchNorm1d(64, eps=0.001, momentum=0.01, affine=True, track_running_stats=True)
            (2): ReLU()
          )
          (2): SparseSequential(
            (0): SubMConv3d(64, 64, kernel_size=[3, 3, 3], stride=[1, 1, 1], padding=[0, 0, 0], dilation=[1, 1, 1], output_padding=[0, 0, 0], bias=False, algo=ConvAlgo.MaskImplicitGemm)
            (1): BatchNorm1d(64, eps=0.001, momentum=0.01, affine=True, track_running_stats=True)
            (2): ReLU()
          )
        )
        (conv4): SparseSequential(
          (0): SparseSequential(
            (0): SparseConv3d(64, 64, kernel_size=[3, 3, 3], stride=[2, 2, 2], padding=[0, 1, 1], dilation=[1, 1, 1], output_padding=[0, 0, 0], bias=False, algo=ConvAlgo.MaskImplicitGemm)
            (1): BatchNorm1d(64, eps=0.001, momentum=0.01, affine=True, track_running_stats=True)
            (2): ReLU()
          )
          (1): SparseSequential(
            (0): SubMConv3d(64, 64, kernel_size=[3, 3, 3], stride=[1, 1, 1], padding=[0, 0, 0], dilation=[1, 1, 1], output_padding=[0, 0, 0], bias=False, algo=ConvAlgo.MaskImplicitGemm)
            (1): BatchNorm1d(64, eps=0.001, momentum=0.01, affine=True, track_running_stats=True)
            (2): ReLU()
          )
          (2): SparseSequential(
            (0): SubMConv3d(64, 64, kernel_size=[3, 3, 3], stride=[1, 1, 1], padding=[0, 0, 0], dilation=[1, 1, 1], output_padding=[0, 0, 0], bias=False, algo=ConvAlgo.MaskImplicitGemm)
            (1): BatchNorm1d(64, eps=0.001, momentum=0.01, affine=True, track_running_stats=True)
            (2): ReLU()
          )
        )
        (conv_out): SparseSequential(
          (0): SparseConv3d(64, 128, kernel_size=[3, 1, 1], stride=[2, 1, 1], padding=[0, 0, 0], dilation=[1, 1, 1], output_padding=[0, 0, 0], bias=False, algo=ConvAlgo.MaskImplicitGemm)
          (1): BatchNorm1d(128, eps=0.001, momentum=0.01, affine=True, track_running_stats=True)
          (2): ReLU()
        )
      )
      (map_to_bev_module): HeightCompression()
      (pfe): VoxelSetAbstraction(
        (SA_layers): ModuleList(
          (0): StackSAModuleMSG(
            (groupers): ModuleList(
              (0): QueryAndGroup()
              (1): QueryAndGroup()
            )
            (mlps): ModuleList(
              (0): Sequential(
                (0): Conv2d(19, 16, kernel_size=(1, 1), stride=(1, 1), bias=False)
                (1): BatchNorm2d(16, eps=1e-05, momentum=0.1, affine=True, track_running_stats=True)
                (2): ReLU()
                (3): Conv2d(16, 16, kernel_size=(1, 1), stride=(1, 1), bias=False)
                (4): BatchNorm2d(16, eps=1e-05, momentum=0.1, affine=True, track_running_stats=True)
                (5): ReLU()
              )
              (1): Sequential(
                (0): Conv2d(19, 16, kernel_size=(1, 1), stride=(1, 1), bias=False)
                (1): BatchNorm2d(16, eps=1e-05, momentum=0.1, affine=True, track_running_stats=True)
                (2): ReLU()
                (3): Conv2d(16, 16, kernel_size=(1, 1), stride=(1, 1), bias=False)
                (4): BatchNorm2d(16, eps=1e-05, momentum=0.1, affine=True, track_running_stats=True)
                (5): ReLU()
              )
            )
          )
          (1): StackSAModuleMSG(
            (groupers): ModuleList(
              (0): QueryAndGroup()
              (1): QueryAndGroup()
            )
            (mlps): ModuleList(
              (0): Sequential(
                (0): Conv2d(35, 32, kernel_size=(1, 1), stride=(1, 1), bias=False)
                (1): BatchNorm2d(32, eps=1e-05, momentum=0.1, affine=True, track_running_stats=True)
                (2): ReLU()
                (3): Conv2d(32, 32, kernel_size=(1, 1), stride=(1, 1), bias=False)
                (4): BatchNorm2d(32, eps=1e-05, momentum=0.1, affine=True, track_running_stats=True)
                (5): ReLU()
              )
              (1): Sequential(
                (0): Conv2d(35, 32, kernel_size=(1, 1), stride=(1, 1), bias=False)
                (1): BatchNorm2d(32, eps=1e-05, momentum=0.1, affine=True, track_running_stats=True)
                (2): ReLU()
                (3): Conv2d(32, 32, kernel_size=(1, 1), stride=(1, 1), bias=False)
                (4): BatchNorm2d(32, eps=1e-05, momentum=0.1, affine=True, track_running_stats=True)
                (5): ReLU()
              )
            )
          )
          (2): StackSAModuleMSG(
            (groupers): ModuleList(
              (0): QueryAndGroup()
              (1): QueryAndGroup()
            )
            (mlps): ModuleList(
              (0): Sequential(
                (0): Conv2d(67, 64, kernel_size=(1, 1), stride=(1, 1), bias=False)
                (1): BatchNorm2d(64, eps=1e-05, momentum=0.1, affine=True, track_running_stats=True)
                (2): ReLU()
                (3): Conv2d(64, 64, kernel_size=(1, 1), stride=(1, 1), bias=False)
                (4): BatchNorm2d(64, eps=1e-05, momentum=0.1, affine=True, track_running_stats=True)
                (5): ReLU()
              )
              (1): Sequential(
                (0): Conv2d(67, 64, kernel_size=(1, 1), stride=(1, 1), bias=False)
                (1): BatchNorm2d(64, eps=1e-05, momentum=0.1, affine=True, track_running_stats=True)
                (2): ReLU()
                (3): Conv2d(64, 64, kernel_size=(1, 1), stride=(1, 1), bias=False)
                (4): BatchNorm2d(64, eps=1e-05, momentum=0.1, affine=True, track_running_stats=True)
                (5): ReLU()
              )
            )
          )
          (3): StackSAModuleMSG(
            (groupers): ModuleList(
              (0): QueryAndGroup()
              (1): QueryAndGroup()
            )
            (mlps): ModuleList(
              (0): Sequential(
                (0): Conv2d(67, 64, kernel_size=(1, 1), stride=(1, 1), bias=False)
                (1): BatchNorm2d(64, eps=1e-05, momentum=0.1, affine=True, track_running_stats=True)
                (2): ReLU()
                (3): Conv2d(64, 64, kernel_size=(1, 1), stride=(1, 1), bias=False)
                (4): BatchNorm2d(64, eps=1e-05, momentum=0.1, affine=True, track_running_stats=True)
                (5): ReLU()
              )
              (1): Sequential(
                (0): Conv2d(67, 64, kernel_size=(1, 1), stride=(1, 1), bias=False)
                (1): BatchNorm2d(64, eps=1e-05, momentum=0.1, affine=True, track_running_stats=True)
                (2): ReLU()
                (3): Conv2d(64, 64, kernel_size=(1, 1), stride=(1, 1), bias=False)
                (4): BatchNorm2d(64, eps=1e-05, momentum=0.1, affine=True, track_running_stats=True)
                (5): ReLU()
              )
            )
          )
        )
        (SA_rawpoints): StackSAModuleMSG(
          (groupers): ModuleList(
            (0): QueryAndGroup()
            (1): QueryAndGroup()
          )
          (mlps): ModuleList(
            (0): Sequential(
              (0): Conv2d(4, 16, kernel_size=(1, 1), stride=(1, 1), bias=False)
              (1): BatchNorm2d(16, eps=1e-05, momentum=0.1, affine=True, track_running_stats=True)
              (2): ReLU()
              (3): Conv2d(16, 16, kernel_size=(1, 1), stride=(1, 1), bias=False)
              (4): BatchNorm2d(16, eps=1e-05, momentum=0.1, affine=True, track_running_stats=True)
              (5): ReLU()
            )
            (1): Sequential(
              (0): Conv2d(4, 16, kernel_size=(1, 1), stride=(1, 1), bias=False)
              (1): BatchNorm2d(16, eps=1e-05, momentum=0.1, affine=True, track_running_stats=True)
              (2): ReLU()
              (3): Conv2d(16, 16, kernel_size=(1, 1), stride=(1, 1), bias=False)
              (4): BatchNorm2d(16, eps=1e-05, momentum=0.1, affine=True, track_running_stats=True)
              (5): ReLU()
            )
          )
        )
        (vsa_point_feature_fusion): Sequential(
          (0): Linear(in_features=640, out_features=128, bias=False)
          (1): BatchNorm1d(128, eps=1e-05, momentum=0.1, affine=True, track_running_stats=True)
          (2): ReLU()
        )
      )
      (backbone_2d): BaseBEVBackbone(
        (blocks): ModuleList(
          (0): Sequential(
            (0): ZeroPad2d(padding=(1, 1, 1, 1), value=0.0)
            (1): Conv2d(256, 128, kernel_size=(3, 3), stride=(1, 1), bias=False)
            (2): BatchNorm2d(128, eps=0.001, momentum=0.01, affine=True, track_running_stats=True)
            (3): ReLU()
            (4): Conv2d(128, 128, kernel_size=(3, 3), stride=(1, 1), padding=(1, 1), bias=False)
            (5): BatchNorm2d(128, eps=0.001, momentum=0.01, affine=True, track_running_stats=True)
            (6): ReLU()
            (7): Conv2d(128, 128, kernel_size=(3, 3), stride=(1, 1), padding=(1, 1), bias=False)
            (8): BatchNorm2d(128, eps=0.001, momentum=0.01, affine=True, track_running_stats=True)
            (9): ReLU()
            (10): Conv2d(128, 128, kernel_size=(3, 3), stride=(1, 1), padding=(1, 1), bias=False)
            (11): BatchNorm2d(128, eps=0.001, momentum=0.01, affine=True, track_running_stats=True)
            (12): ReLU()
            (13): Conv2d(128, 128, kernel_size=(3, 3), stride=(1, 1), padding=(1, 1), bias=False)
            (14): BatchNorm2d(128, eps=0.001, momentum=0.01, affine=True, track_running_stats=True)
            (15): ReLU()
            (16): Conv2d(128, 128, kernel_size=(3, 3), stride=(1, 1), padding=(1, 1), bias=False)
            (17): BatchNorm2d(128, eps=0.001, momentum=0.01, affine=True, track_running_stats=True)
            (18): ReLU()
          )
          (1): Sequential(
            (0): ZeroPad2d(padding=(1, 1, 1, 1), value=0.0)
            (1): Conv2d(128, 256, kernel_size=(3, 3), stride=(2, 2), bias=False)
            (2): BatchNorm2d(256, eps=0.001, momentum=0.01, affine=True, track_running_stats=True)
            (3): ReLU()
            (4): Conv2d(256, 256, kernel_size=(3, 3), stride=(1, 1), padding=(1, 1), bias=False)
            (5): BatchNorm2d(256, eps=0.001, momentum=0.01, affine=True, track_running_stats=True)
            (6): ReLU()
            (7): Conv2d(256, 256, kernel_size=(3, 3), stride=(1, 1), padding=(1, 1), bias=False)
            (8): BatchNorm2d(256, eps=0.001, momentum=0.01, affine=True, track_running_stats=True)
            (9): ReLU()
            (10): Conv2d(256, 256, kernel_size=(3, 3), stride=(1, 1), padding=(1, 1), bias=False)
            (11): BatchNorm2d(256, eps=0.001, momentum=0.01, affine=True, track_running_stats=True)
            (12): ReLU()
            (13): Conv2d(256, 256, kernel_size=(3, 3), stride=(1, 1), padding=(1, 1), bias=False)
            (14): BatchNorm2d(256, eps=0.001, momentum=0.01, affine=True, track_running_stats=True)
            (15): ReLU()
            (16): Conv2d(256, 256, kernel_size=(3, 3), stride=(1, 1), padding=(1, 1), bias=False)
            (17): BatchNorm2d(256, eps=0.001, momentum=0.01, affine=True, track_running_stats=True)
            (18): ReLU()
          )
        )
        (deblocks): ModuleList(
          (0): Sequential(
            (0): ConvTranspose2d(128, 256, kernel_size=(1, 1), stride=(1, 1), bias=False)
            (1): BatchNorm2d(256, eps=0.001, momentum=0.01, affine=True, track_running_stats=True)
            (2): ReLU()
          )
          (1): Sequential(
            (0): ConvTranspose2d(256, 256, kernel_size=(2, 2), stride=(2, 2), bias=False)
            (1): BatchNorm2d(256, eps=0.001, momentum=0.01, affine=True, track_running_stats=True)
            (2): ReLU()
          )
        )
      )
      (dense_head): AnchorHeadSingle(
        (cls_loss_func): SigmoidFocalClassificationLoss()
        (reg_loss_func): WeightedSmoothL1Loss()
        (dir_loss_func): WeightedCrossEntropyLoss()
        (conv_cls): Conv2d(512, 18, kernel_size=(1, 1), stride=(1, 1))
        (conv_box): Conv2d(512, 42, kernel_size=(1, 1), stride=(1, 1))
        (conv_dir_cls): Conv2d(512, 12, kernel_size=(1, 1), stride=(1, 1))
      )
      (point_head): PointHeadSimple(
        (cls_loss_func): SigmoidFocalClassificationLoss()
        (cls_layers): Sequential(
          (0): Linear(in_features=640, out_features=256, bias=False)
          (1): BatchNorm1d(256, eps=1e-05, momentum=0.1, affine=True, track_running_stats=True)
          (2): ReLU()
          (3): Linear(in_features=256, out_features=256, bias=False)
          (4): BatchNorm1d(256, eps=1e-05, momentum=0.1, affine=True, track_running_stats=True)
          (5): ReLU()
          (6): Linear(in_features=256, out_features=1, bias=True)
        )
      )
      (roi_head): PVRCNNHead(
        (proposal_target_layer): ProposalTargetLayer()
        (reg_loss_func): WeightedSmoothL1Loss()
        (roi_grid_pool_layer): StackSAModuleMSG(
          (groupers): ModuleList(
            (0): QueryAndGroup()
            (1): QueryAndGroup()
          )
          (mlps): ModuleList(
            (0): Sequential(
              (0): Conv2d(131, 64, kernel_size=(1, 1), stride=(1, 1), bias=False)
              (1): BatchNorm2d(64, eps=1e-05, momentum=0.1, affine=True, track_running_stats=True)
              (2): ReLU()
              (3): Conv2d(64, 64, kernel_size=(1, 1), stride=(1, 1), bias=False)
              (4): BatchNorm2d(64, eps=1e-05, momentum=0.1, affine=True, track_running_stats=True)
              (5): ReLU()
            )
            (1): Sequential(
              (0): Conv2d(131, 64, kernel_size=(1, 1), stride=(1, 1), bias=False)
              (1): BatchNorm2d(64, eps=1e-05, momentum=0.1, affine=True, track_running_stats=True)
              (2): ReLU()
              (3): Conv2d(64, 64, kernel_size=(1, 1), stride=(1, 1), bias=False)
              (4): BatchNorm2d(64, eps=1e-05, momentum=0.1, affine=True, track_running_stats=True)
              (5): ReLU()
            )
          )
        )
        (shared_fc_layer): Sequential(
          (0): Conv1d(27648, 256, kernel_size=(1,), stride=(1,), bias=False)
          (1): BatchNorm1d(256, eps=1e-05, momentum=0.1, affine=True, track_running_stats=True)
          (2): ReLU()
          (3): Dropout(p=0.3, inplace=False)
          (4): Conv1d(256, 256, kernel_size=(1,), stride=(1,), bias=False)
          (5): BatchNorm1d(256, eps=1e-05, momentum=0.1, affine=True, track_running_stats=True)
          (6): ReLU()
        )
        (cls_layers): Sequential(
          (0): Conv1d(256, 256, kernel_size=(1,), stride=(1,), bias=False)
          (1): BatchNorm1d(256, eps=1e-05, momentum=0.1, affine=True, track_running_stats=True)
          (2): ReLU()
          (3): Dropout(p=0.3, inplace=False)
          (4): Conv1d(256, 256, kernel_size=(1,), stride=(1,), bias=False)
          (5): BatchNorm1d(256, eps=1e-05, momentum=0.1, affine=True, track_running_stats=True)
          (6): ReLU()
          (7): Conv1d(256, 1, kernel_size=(1,), stride=(1,))
        )
        (reg_layers): Sequential(
          (0): Conv1d(256, 256, kernel_size=(1,), stride=(1,), bias=False)
          (1): BatchNorm1d(256, eps=1e-05, momentum=0.1, affine=True, track_running_stats=True)
          (2): ReLU()
          (3): Dropout(p=0.3, inplace=False)
          (4): Conv1d(256, 256, kernel_size=(1,), stride=(1,), bias=False)
          (5): BatchNorm1d(256, eps=1e-05, momentum=0.1, affine=True, track_running_stats=True)
          (6): ReLU()
          (7): Conv1d(256, 7, kernel_size=(1,), stride=(1,))
        )
      )
    )
    (pv_rcnn_ema): PVRCNN(
      (vfe): MeanVFE()
      (backbone_3d): VoxelBackBone8x(
        (conv_input): SparseSequential(
          (0): SubMConv3d(4, 16, kernel_size=[3, 3, 3], stride=[1, 1, 1], padding=[1, 1, 1], dilation=[1, 1, 1], output_padding=[0, 0, 0], bias=False, algo=ConvAlgo.MaskImplicitGemm)
          (1): BatchNorm1d(16, eps=0.001, momentum=0.01, affine=True, track_running_stats=True)
          (2): ReLU()
        )
        (conv1): SparseSequential(
          (0): SparseSequential(
            (0): SubMConv3d(16, 16, kernel_size=[3, 3, 3], stride=[1, 1, 1], padding=[0, 0, 0], dilation=[1, 1, 1], output_padding=[0, 0, 0], bias=False, algo=ConvAlgo.MaskImplicitGemm)
            (1): BatchNorm1d(16, eps=0.001, momentum=0.01, affine=True, track_running_stats=True)
            (2): ReLU()
          )
        )
        (conv2): SparseSequential(
          (0): SparseSequential(
            (0): SparseConv3d(16, 32, kernel_size=[3, 3, 3], stride=[2, 2, 2], padding=[1, 1, 1], dilation=[1, 1, 1], output_padding=[0, 0, 0], bias=False, algo=ConvAlgo.MaskImplicitGemm)
            (1): BatchNorm1d(32, eps=0.001, momentum=0.01, affine=True, track_running_stats=True)
            (2): ReLU()
          )
          (1): SparseSequential(
            (0): SubMConv3d(32, 32, kernel_size=[3, 3, 3], stride=[1, 1, 1], padding=[0, 0, 0], dilation=[1, 1, 1], output_padding=[0, 0, 0], bias=False, algo=ConvAlgo.MaskImplicitGemm)
            (1): BatchNorm1d(32, eps=0.001, momentum=0.01, affine=True, track_running_stats=True)
            (2): ReLU()
          )
          (2): SparseSequential(
            (0): SubMConv3d(32, 32, kernel_size=[3, 3, 3], stride=[1, 1, 1], padding=[0, 0, 0], dilation=[1, 1, 1], output_padding=[0, 0, 0], bias=False, algo=ConvAlgo.MaskImplicitGemm)
            (1): BatchNorm1d(32, eps=0.001, momentum=0.01, affine=True, track_running_stats=True)
            (2): ReLU()
          )
        )
        (conv3): SparseSequential(
          (0): SparseSequential(
            (0): SparseConv3d(32, 64, kernel_size=[3, 3, 3], stride=[2, 2, 2], padding=[1, 1, 1], dilation=[1, 1, 1], output_padding=[0, 0, 0], bias=False, algo=ConvAlgo.MaskImplicitGemm)
            (1): BatchNorm1d(64, eps=0.001, momentum=0.01, affine=True, track_running_stats=True)
            (2): ReLU()
          )
          (1): SparseSequential(
            (0): SubMConv3d(64, 64, kernel_size=[3, 3, 3], stride=[1, 1, 1], padding=[0, 0, 0], dilation=[1, 1, 1], output_padding=[0, 0, 0], bias=False, algo=ConvAlgo.MaskImplicitGemm)
            (1): BatchNorm1d(64, eps=0.001, momentum=0.01, affine=True, track_running_stats=True)
            (2): ReLU()
          )
          (2): SparseSequential(
            (0): SubMConv3d(64, 64, kernel_size=[3, 3, 3], stride=[1, 1, 1], padding=[0, 0, 0], dilation=[1, 1, 1], output_padding=[0, 0, 0], bias=False, algo=ConvAlgo.MaskImplicitGemm)
            (1): BatchNorm1d(64, eps=0.001, momentum=0.01, affine=True, track_running_stats=True)
            (2): ReLU()
          )
        )
        (conv4): SparseSequential(
          (0): SparseSequential(
            (0): SparseConv3d(64, 64, kernel_size=[3, 3, 3], stride=[2, 2, 2], padding=[0, 1, 1], dilation=[1, 1, 1], output_padding=[0, 0, 0], bias=False, algo=ConvAlgo.MaskImplicitGemm)
            (1): BatchNorm1d(64, eps=0.001, momentum=0.01, affine=True, track_running_stats=True)
            (2): ReLU()
          )
          (1): SparseSequential(
            (0): SubMConv3d(64, 64, kernel_size=[3, 3, 3], stride=[1, 1, 1], padding=[0, 0, 0], dilation=[1, 1, 1], output_padding=[0, 0, 0], bias=False, algo=ConvAlgo.MaskImplicitGemm)
            (1): BatchNorm1d(64, eps=0.001, momentum=0.01, affine=True, track_running_stats=True)
            (2): ReLU()
          )
          (2): SparseSequential(
            (0): SubMConv3d(64, 64, kernel_size=[3, 3, 3], stride=[1, 1, 1], padding=[0, 0, 0], dilation=[1, 1, 1], output_padding=[0, 0, 0], bias=False, algo=ConvAlgo.MaskImplicitGemm)
            (1): BatchNorm1d(64, eps=0.001, momentum=0.01, affine=True, track_running_stats=True)
            (2): ReLU()
          )
        )
        (conv_out): SparseSequential(
          (0): SparseConv3d(64, 128, kernel_size=[3, 1, 1], stride=[2, 1, 1], padding=[0, 0, 0], dilation=[1, 1, 1], output_padding=[0, 0, 0], bias=False, algo=ConvAlgo.MaskImplicitGemm)
          (1): BatchNorm1d(128, eps=0.001, momentum=0.01, affine=True, track_running_stats=True)
          (2): ReLU()
        )
      )
      (map_to_bev_module): HeightCompression()
      (pfe): VoxelSetAbstraction(
        (SA_layers): ModuleList(
          (0): StackSAModuleMSG(
            (groupers): ModuleList(
              (0): QueryAndGroup()
              (1): QueryAndGroup()
            )
            (mlps): ModuleList(
              (0): Sequential(
                (0): Conv2d(19, 16, kernel_size=(1, 1), stride=(1, 1), bias=False)
                (1): BatchNorm2d(16, eps=1e-05, momentum=0.1, affine=True, track_running_stats=True)
                (2): ReLU()
                (3): Conv2d(16, 16, kernel_size=(1, 1), stride=(1, 1), bias=False)
                (4): BatchNorm2d(16, eps=1e-05, momentum=0.1, affine=True, track_running_stats=True)
                (5): ReLU()
              )
              (1): Sequential(
                (0): Conv2d(19, 16, kernel_size=(1, 1), stride=(1, 1), bias=False)
                (1): BatchNorm2d(16, eps=1e-05, momentum=0.1, affine=True, track_running_stats=True)
                (2): ReLU()
                (3): Conv2d(16, 16, kernel_size=(1, 1), stride=(1, 1), bias=False)
                (4): BatchNorm2d(16, eps=1e-05, momentum=0.1, affine=True, track_running_stats=True)
                (5): ReLU()
              )
            )
          )
          (1): StackSAModuleMSG(
            (groupers): ModuleList(
              (0): QueryAndGroup()
              (1): QueryAndGroup()
            )
            (mlps): ModuleList(
              (0): Sequential(
                (0): Conv2d(35, 32, kernel_size=(1, 1), stride=(1, 1), bias=False)
                (1): BatchNorm2d(32, eps=1e-05, momentum=0.1, affine=True, track_running_stats=True)
                (2): ReLU()
                (3): Conv2d(32, 32, kernel_size=(1, 1), stride=(1, 1), bias=False)
                (4): BatchNorm2d(32, eps=1e-05, momentum=0.1, affine=True, track_running_stats=True)
                (5): ReLU()
              )
              (1): Sequential(
                (0): Conv2d(35, 32, kernel_size=(1, 1), stride=(1, 1), bias=False)
                (1): BatchNorm2d(32, eps=1e-05, momentum=0.1, affine=True, track_running_stats=True)
                (2): ReLU()
                (3): Conv2d(32, 32, kernel_size=(1, 1), stride=(1, 1), bias=False)
                (4): BatchNorm2d(32, eps=1e-05, momentum=0.1, affine=True, track_running_stats=True)
                (5): ReLU()
              )
            )
          )
          (2): StackSAModuleMSG(
            (groupers): ModuleList(
              (0): QueryAndGroup()
              (1): QueryAndGroup()
            )
            (mlps): ModuleList(
              (0): Sequential(
                (0): Conv2d(67, 64, kernel_size=(1, 1), stride=(1, 1), bias=False)
                (1): BatchNorm2d(64, eps=1e-05, momentum=0.1, affine=True, track_running_stats=True)
                (2): ReLU()
                (3): Conv2d(64, 64, kernel_size=(1, 1), stride=(1, 1), bias=False)
                (4): BatchNorm2d(64, eps=1e-05, momentum=0.1, affine=True, track_running_stats=True)
                (5): ReLU()
              )
              (1): Sequential(
                (0): Conv2d(67, 64, kernel_size=(1, 1), stride=(1, 1), bias=False)
                (1): BatchNorm2d(64, eps=1e-05, momentum=0.1, affine=True, track_running_stats=True)
                (2): ReLU()
                (3): Conv2d(64, 64, kernel_size=(1, 1), stride=(1, 1), bias=False)
                (4): BatchNorm2d(64, eps=1e-05, momentum=0.1, affine=True, track_running_stats=True)
                (5): ReLU()
              )
            )
          )
          (3): StackSAModuleMSG(
            (groupers): ModuleList(
              (0): QueryAndGroup()
              (1): QueryAndGroup()
            )
            (mlps): ModuleList(
              (0): Sequential(
                (0): Conv2d(67, 64, kernel_size=(1, 1), stride=(1, 1), bias=False)
                (1): BatchNorm2d(64, eps=1e-05, momentum=0.1, affine=True, track_running_stats=True)
                (2): ReLU()
                (3): Conv2d(64, 64, kernel_size=(1, 1), stride=(1, 1), bias=False)
                (4): BatchNorm2d(64, eps=1e-05, momentum=0.1, affine=True, track_running_stats=True)
                (5): ReLU()
              )
              (1): Sequential(
                (0): Conv2d(67, 64, kernel_size=(1, 1), stride=(1, 1), bias=False)
                (1): BatchNorm2d(64, eps=1e-05, momentum=0.1, affine=True, track_running_stats=True)
                (2): ReLU()
                (3): Conv2d(64, 64, kernel_size=(1, 1), stride=(1, 1), bias=False)
                (4): BatchNorm2d(64, eps=1e-05, momentum=0.1, affine=True, track_running_stats=True)
                (5): ReLU()
              )
            )
          )
        )
        (SA_rawpoints): StackSAModuleMSG(
          (groupers): ModuleList(
            (0): QueryAndGroup()
            (1): QueryAndGroup()
          )
          (mlps): ModuleList(
            (0): Sequential(
              (0): Conv2d(4, 16, kernel_size=(1, 1), stride=(1, 1), bias=False)
              (1): BatchNorm2d(16, eps=1e-05, momentum=0.1, affine=True, track_running_stats=True)
              (2): ReLU()
              (3): Conv2d(16, 16, kernel_size=(1, 1), stride=(1, 1), bias=False)
              (4): BatchNorm2d(16, eps=1e-05, momentum=0.1, affine=True, track_running_stats=True)
              (5): ReLU()
            )
            (1): Sequential(
              (0): Conv2d(4, 16, kernel_size=(1, 1), stride=(1, 1), bias=False)
              (1): BatchNorm2d(16, eps=1e-05, momentum=0.1, affine=True, track_running_stats=True)
              (2): ReLU()
              (3): Conv2d(16, 16, kernel_size=(1, 1), stride=(1, 1), bias=False)
              (4): BatchNorm2d(16, eps=1e-05, momentum=0.1, affine=True, track_running_stats=True)
              (5): ReLU()
            )
          )
        )
        (vsa_point_feature_fusion): Sequential(
          (0): Linear(in_features=640, out_features=128, bias=False)
          (1): BatchNorm1d(128, eps=1e-05, momentum=0.1, affine=True, track_running_stats=True)
          (2): ReLU()
        )
      )
      (backbone_2d): BaseBEVBackbone(
        (blocks): ModuleList(
          (0): Sequential(
            (0): ZeroPad2d(padding=(1, 1, 1, 1), value=0.0)
            (1): Conv2d(256, 128, kernel_size=(3, 3), stride=(1, 1), bias=False)
            (2): BatchNorm2d(128, eps=0.001, momentum=0.01, affine=True, track_running_stats=True)
            (3): ReLU()
            (4): Conv2d(128, 128, kernel_size=(3, 3), stride=(1, 1), padding=(1, 1), bias=False)
            (5): BatchNorm2d(128, eps=0.001, momentum=0.01, affine=True, track_running_stats=True)
            (6): ReLU()
            (7): Conv2d(128, 128, kernel_size=(3, 3), stride=(1, 1), padding=(1, 1), bias=False)
            (8): BatchNorm2d(128, eps=0.001, momentum=0.01, affine=True, track_running_stats=True)
            (9): ReLU()
            (10): Conv2d(128, 128, kernel_size=(3, 3), stride=(1, 1), padding=(1, 1), bias=False)
            (11): BatchNorm2d(128, eps=0.001, momentum=0.01, affine=True, track_running_stats=True)
            (12): ReLU()
            (13): Conv2d(128, 128, kernel_size=(3, 3), stride=(1, 1), padding=(1, 1), bias=False)
            (14): BatchNorm2d(128, eps=0.001, momentum=0.01, affine=True, track_running_stats=True)
            (15): ReLU()
            (16): Conv2d(128, 128, kernel_size=(3, 3), stride=(1, 1), padding=(1, 1), bias=False)
            (17): BatchNorm2d(128, eps=0.001, momentum=0.01, affine=True, track_running_stats=True)
            (18): ReLU()
          )
          (1): Sequential(
            (0): ZeroPad2d(padding=(1, 1, 1, 1), value=0.0)
            (1): Conv2d(128, 256, kernel_size=(3, 3), stride=(2, 2), bias=False)
            (2): BatchNorm2d(256, eps=0.001, momentum=0.01, affine=True, track_running_stats=True)
            (3): ReLU()
            (4): Conv2d(256, 256, kernel_size=(3, 3), stride=(1, 1), padding=(1, 1), bias=False)
            (5): BatchNorm2d(256, eps=0.001, momentum=0.01, affine=True, track_running_stats=True)
            (6): ReLU()
            (7): Conv2d(256, 256, kernel_size=(3, 3), stride=(1, 1), padding=(1, 1), bias=False)
            (8): BatchNorm2d(256, eps=0.001, momentum=0.01, affine=True, track_running_stats=True)
            (9): ReLU()
            (10): Conv2d(256, 256, kernel_size=(3, 3), stride=(1, 1), padding=(1, 1), bias=False)
            (11): BatchNorm2d(256, eps=0.001, momentum=0.01, affine=True, track_running_stats=True)
            (12): ReLU()
            (13): Conv2d(256, 256, kernel_size=(3, 3), stride=(1, 1), padding=(1, 1), bias=False)
            (14): BatchNorm2d(256, eps=0.001, momentum=0.01, affine=True, track_running_stats=True)
            (15): ReLU()
            (16): Conv2d(256, 256, kernel_size=(3, 3), stride=(1, 1), padding=(1, 1), bias=False)
            (17): BatchNorm2d(256, eps=0.001, momentum=0.01, affine=True, track_running_stats=True)
            (18): ReLU()
          )
        )
        (deblocks): ModuleList(
          (0): Sequential(
            (0): ConvTranspose2d(128, 256, kernel_size=(1, 1), stride=(1, 1), bias=False)
            (1): BatchNorm2d(256, eps=0.001, momentum=0.01, affine=True, track_running_stats=True)
            (2): ReLU()
          )
          (1): Sequential(
            (0): ConvTranspose2d(256, 256, kernel_size=(2, 2), stride=(2, 2), bias=False)
            (1): BatchNorm2d(256, eps=0.001, momentum=0.01, affine=True, track_running_stats=True)
            (2): ReLU()
          )
        )
      )
      (dense_head): AnchorHeadSingle(
        (cls_loss_func): SigmoidFocalClassificationLoss()
        (reg_loss_func): WeightedSmoothL1Loss()
        (dir_loss_func): WeightedCrossEntropyLoss()
        (conv_cls): Conv2d(512, 18, kernel_size=(1, 1), stride=(1, 1))
        (conv_box): Conv2d(512, 42, kernel_size=(1, 1), stride=(1, 1))
        (conv_dir_cls): Conv2d(512, 12, kernel_size=(1, 1), stride=(1, 1))
      )
      (point_head): PointHeadSimple(
        (cls_loss_func): SigmoidFocalClassificationLoss()
        (cls_layers): Sequential(
          (0): Linear(in_features=640, out_features=256, bias=False)
          (1): BatchNorm1d(256, eps=1e-05, momentum=0.1, affine=True, track_running_stats=True)
          (2): ReLU()
          (3): Linear(in_features=256, out_features=256, bias=False)
          (4): BatchNorm1d(256, eps=1e-05, momentum=0.1, affine=True, track_running_stats=True)
          (5): ReLU()
          (6): Linear(in_features=256, out_features=1, bias=True)
        )
      )
      (roi_head): PVRCNNHead(
        (proposal_target_layer): ProposalTargetLayer()
        (reg_loss_func): WeightedSmoothL1Loss()
        (roi_grid_pool_layer): StackSAModuleMSG(
          (groupers): ModuleList(
            (0): QueryAndGroup()
            (1): QueryAndGroup()
          )
          (mlps): ModuleList(
            (0): Sequential(
              (0): Conv2d(131, 64, kernel_size=(1, 1), stride=(1, 1), bias=False)
              (1): BatchNorm2d(64, eps=1e-05, momentum=0.1, affine=True, track_running_stats=True)
              (2): ReLU()
              (3): Conv2d(64, 64, kernel_size=(1, 1), stride=(1, 1), bias=False)
              (4): BatchNorm2d(64, eps=1e-05, momentum=0.1, affine=True, track_running_stats=True)
              (5): ReLU()
            )
            (1): Sequential(
              (0): Conv2d(131, 64, kernel_size=(1, 1), stride=(1, 1), bias=False)
              (1): BatchNorm2d(64, eps=1e-05, momentum=0.1, affine=True, track_running_stats=True)
              (2): ReLU()
              (3): Conv2d(64, 64, kernel_size=(1, 1), stride=(1, 1), bias=False)
              (4): BatchNorm2d(64, eps=1e-05, momentum=0.1, affine=True, track_running_stats=True)
              (5): ReLU()
            )
          )
        )
        (shared_fc_layer): Sequential(
          (0): Conv1d(27648, 256, kernel_size=(1,), stride=(1,), bias=False)
          (1): BatchNorm1d(256, eps=1e-05, momentum=0.1, affine=True, track_running_stats=True)
          (2): ReLU()
          (3): Dropout(p=0.3, inplace=False)
          (4): Conv1d(256, 256, kernel_size=(1,), stride=(1,), bias=False)
          (5): BatchNorm1d(256, eps=1e-05, momentum=0.1, affine=True, track_running_stats=True)
          (6): ReLU()
        )
        (cls_layers): Sequential(
          (0): Conv1d(256, 256, kernel_size=(1,), stride=(1,), bias=False)
          (1): BatchNorm1d(256, eps=1e-05, momentum=0.1, affine=True, track_running_stats=True)
          (2): ReLU()
          (3): Dropout(p=0.3, inplace=False)
          (4): Conv1d(256, 256, kernel_size=(1,), stride=(1,), bias=False)
          (5): BatchNorm1d(256, eps=1e-05, momentum=0.1, affine=True, track_running_stats=True)
          (6): ReLU()
          (7): Conv1d(256, 1, kernel_size=(1,), stride=(1,))
        )
        (reg_layers): Sequential(
          (0): Conv1d(256, 256, kernel_size=(1,), stride=(1,), bias=False)
          (1): BatchNorm1d(256, eps=1e-05, momentum=0.1, affine=True, track_running_stats=True)
          (2): ReLU()
          (3): Dropout(p=0.3, inplace=False)
          (4): Conv1d(256, 256, kernel_size=(1,), stride=(1,), bias=False)
          (5): BatchNorm1d(256, eps=1e-05, momentum=0.1, affine=True, track_running_stats=True)
          (6): ReLU()
          (7): Conv1d(256, 7, kernel_size=(1,), stride=(1,))
        )
      )
    )
  )
)
2023-05-26 14:27:43,781   INFO  **********************Start training kitti_models/pv_rcnn_ssl_db(train_0.05_repeat1_60epochs)**********************
2023-05-26 15:05:03,340   INFO  **********************End training kitti_models/pv_rcnn_ssl_db(train_0.05_repeat1_60epochs)**********************



2023-05-26 15:05:03,341   INFO  **********************Start evaluation kitti_models/pv_rcnn_ssl_db(train_0.05_repeat1_60epochs)**********************
…
